app/py/300Gen_net.pt (torch_old, 521685 bytes, 220 tensors)

cb1_1.conv1.weight f4 [8, 6, 3, 3]
00000000: fe8f 00c0 1a0b c0bf 7f25 12be 1fc6 64c0
00000010: 9875 b9bf dedb 5a3e 50e4 debf d680 afbf
00000020: c90e 48bf 1440 04c0 02e2 55c0 150b 34bf
00000030: 5fb9 a5c0 e145 1cc0 2254 f4be 833e f7bf
00000040: 8726 a0bf 9033 f03d 2765 06c0 913a fabf
00000050: 3401 b1be 02c3 43c0 4141 923b a4f2 9d3a
00000060: 0364 08c0 dc55 46bf ad97 803e c27b 483f
00000070: be8e 02bd dc67 a3bf e20e e43e 0d78 eb3e
00000080: 785b 453f 03e1 dcbf d27f 67bf 2b2d f53d
00000090: 721c 0cc0 656b bcbf 5ab6 8d3e f4cf e6bf
000000a0: 3443 43bf be13 63bf 0637 8a3f e02a 153f
000000b0: f9c3 c1be bf75 02bf a180 f4bf 8a90 b53d
000000c0: 34d9 eebe 8aff 25bf 3836 afbe 2691 1d3f
000000d0: 6b67 a8bf 77fd a93f fec3 18bf 99bb df3e
000000e0: 3341 0b3e c8d0 4cbf 1f30 11bf 0f4d 703f
000000f0: 2fd1 ebbe 418c dfbc 459a 323f 83ca 55c0
00000100: f5c6 17c0 e7ff 613d ef94 32bf 6d37 44bf
00000110: 18f5 9b3f 3826 ea3d 2682 813d b422 f33f
00000120: 05a7 27bf f458 68bf 68d6 4a3e cdf6 1cbf
00000130: fb0c 5fbf 5c00 ff3e 8c78 1f3f 91f0 013f
00000140: 8dcf 553f e8e1 7f3e f4b3 9bbf 907c 0c40
00000150: ca2a dcbf 9e2e a5bf 4b04 7b3e 5b0b 47c0
00000160: 493c 7dbe 5ebb cdbf c89c 8dbf 946a 6c3e
00000170: 4623 8abf 6920 1ebf f85b 46c0 3846 8ec0
00000180: 9945 b1bf c659 4bc0 654e c93f d6c3 9f3f
00000190: 4ac7 edbf 7ac8 943f d3e6 0b40 d365 2040
000001a0: 35ce 423f b159 6040 446a f23f fd0b 793e
000001b0: 6d93 853f 80a5 28bf 4549 fbbf 9166 2240
000001c0: 0c54 9d3e 64ac dfbf ca71 0e3f 6cba 8cbf
000001d0: fb5e 68bf a58a df3f 3fbd c6bd 4048 abbf
000001e0: dc3f 4f40 91b7 413f a21a 9abf 40ed 3bbe
000001f0: 4bec bdbf 28b8 20bf eae8 0740 3d79 d1bd
00000200: cd42 02c0 a5bc 6440 2e89 aa3f be86 7abf
00000210: c0b2 233e fccc 95bf 486f 18bf 1f1c 71bf
00000220: 1d83 b5be ea05 1ac0 3747 6340 5682 443f
00000230: 9a43 afbf 0be7 1b40 4d72 5f3f d5ec 6b3f
00000240: 547a dbbd 3c3a b9bf 460f 60bf 8f75 a93f
00000250: a9e1 35c0 589e 193f 7b5d 10c0 937a 52c0
00000260: 8971 9bbe c3e4 84bf 5830 2ec0 ff83 93c0
00000270: 9814 e8bf c1a3 d1bf 4b83 8bbf 677b b8be
00000280: 4728 1c3f a637 033f 9142 acbf b189 17c0
00000290: 6179 46c0 da52 ccbf 8c01 54c0 696f 14c0
000002a0: 60c0 06c0 ba7b b8bf 02cc f2bf 1418 34be
000002b0: 0f5e 17bf 8972 1bc0 27f5 1f3d fdb6 a2bf
000002c0: 7c4f 17c0 0292 4dbf 3b6b 8cbf 0515 2dc0
000002d0: 0c53 2bbe 4ef7 7cbf fe4d 74bf 3d44 c73e
000002e0: 8a60 05be 7177 a7bf 586f 0ebf f20d eabf
000002f0: 8cbd 8fbf 1ba2 f2be 0b9d 0fbf 306f 903f
00000300: 8d66 d6be af9f d13f 5e7e 7b3f b1f9 aebf
00000310: dbc4 cdbf a5c2 023f 8086 173e ba34 983f
00000320: 1feb 4d3f ef6e 6f3f d3fc da3f aa71 a93f
00000330: 121d f7be cdc5 a63f 5e7a 2bbf 3fbd b9bf
00000340: bf38 ccbf 5f16 fa3f 3997 a8bd ded5 95be
00000350: 37e3 0140 328b 0340 c2b6 753d 6d48 d13e
00000360: 8fb1 49bf a489 b8bf 677f bbbf be2d 8bbf
00000370: a97c 62c0 6895 26c0 5d65 37c0 4f40 8cc0
00000380: a940 87c0 9440 a1bf 63fe 1ac0 33e4 21c0
00000390: d138 07c0 e486 6ac0 f098 52c0 0e95 63c0
000003a0: 5e1a c0bf f0aa 7cbf 657a 213f 613c 873e
000003b0: 1b88 b2bf dc88 b5bf a89b cebf 8fe6 6dbf
000003c0: d258 eebf 56f1 cfbf 510e efbf 9e79 923f
000003d0: df77 67bf 1213 20bf 6029 6cbf 60e5 a3be
000003e0: 9922 033f ec59 f2bf 9c4c b9bf e7e7 5c3f
000003f0: 5532 62bf a9da b7bf c2ef 19c0 04a1 28bf
-2.0087886 -1.5003388 -0.14272116 -3.5745924 -1.4489012 0.21372935 -1.7413425 -1.3711193
-0.7814756 -2.066411 -3.3419194 -0.7032941 -5.1788783 -2.441765 -0.47720438 -1.9315952
-1.2511758 0.11728585 -2.0999238 -1.9549123 -0.3457123 -3.0587773 0.0044633453 0.0012050462
-2.1311042 -0.7747476 0.2511572 0.7831384 -0.03187441 -1.276607 0.44542605 0.4599003
0.77092695 -1.7256168 -0.90429413 0.11971506 -2.1892362 -1.4720274 0.27678186 -1.8032212
-0.7627442 -0.88702 1.0798042 0.5826855 -0.37844828 -0.50960916 -1.9101754 0.08865459
-0.46650088 -0.64843047 -0.34221053 0.61549604 -1.3156561 1.3280476 -0.5967406 0.43697813
0.1359909 -0.80006075 -0.5671405 0.9386758 -0.46058032 -0.027288558 0.69766647 -3.3404853
-2.3715184 0.055175688 -0.69758505 -0.76647073 1.2184172 0.11433071 0.06323652 1.8994966
-0.65489227 -0.9076073 0.19808352 -0.6131409 -0.8712918 0.49804962 0.62293315 0.507577
0.8351982 0.2498852 -1.2164292 2.1951027 -1.7200558 -1.2904851 0.24513356 -3.110068
-0.24730028 -1.6072805 -1.1063471 0.23087531 -1.0792015 -0.61768204 -3.0993633 -4.4460716
-1.3849365 -3.1773543 1.5727049 1.2481639 -1.8576443 1.162368 2.1859634 2.5062149
0.76095897 3.5054743 1.893868 0.2432098 1.0435616 -0.6587753 -1.9631735 2.5375102
0.30728185 -1.7474484 0.5564238 -1.0994391 -0.9076993 1.7464186 -0.097040646 -1.3381424
3.2382727 0.75670725 -1.2039378 -0.18352222 -1.4837736 -0.62781 2.123591 -0.102282025
-2.0353272 3.574014 1.3323114 -0.9786185 0.15986156 -1.1703181 -0.595448 -0.94183534
-0.35451594 -2.406611 3.5512216 0.76761377 -1.3692505 2.4359767 0.87283784 0.9215825
-0.107166916 -1.4470897 -0.87523305 1.3239001 -2.8418982 0.6000724 -2.2557056 -3.2887313
-0.30360058 -1.0382313 -2.7217007 -4.609863 -1.8131285 -1.6378099 -1.0899442 -0.3603165
0.6099896 0.5125679 -1.3457814 -2.367779 -3.1011584 -1.5962784 -3.3125944 -2.3193
-2.1054916 -1.4412758 -1.8968508 -0.1758731 -0.591279 -2.4288657 0.039052155 -1.2712094
-2.3642263 -0.80300915 -1.0970224 -2.704408 -0.16730899 -0.98814857 -0.95431507 0.3891925
-0.13025108 -1.3083326 -0.5563865 -1.8285506 -1.122972 -0.47389302 -0.56099004 1.1283932
-0.41875115 1.6376857 0.98239696 -1.366995 -1.60757 0.51078254 0.14797401 1.1891091
0.8043689 0.93528646 1.7108406 1.3237813 -0.48264366 1.3029114 -0.6698359 -1.4510878
-1.5954818 1.9538077 -0.082319684 -0.2926473 2.029493 2.0553708 0.059988745 0.4087557
-0.7878656 -1.4417005 -1.4648255 -1.0873334 -3.5388587 -2.602869 -2.8655617 -4.38285
-4.226643 -1.2597833 -2.4217765 -2.5295532 -2.1128428 -3.664483 -3.2905846 -3.5559726
-1.5008047 -0.9869833 0.63077384 0.26413253 -1.3947786 -1.4182391 -1.6141253 -0.9292993
-1.8620856 -1.6245525 -1.8676244 1.1443365 -0.90417284 -0.625291 -0.92250633 -0.32010937
0.51224667 -1.8933692 -1.4476504 0.86291355 -0.8835805 -1.4363605 -2.4052587 -0.6587069

cb1_1.conv1.bias f4 [8]
00000000: 689c c53d 60fa db3d 4e51 8d3d 1b8a f13c
00000010: 3d84 63bd 7457 8abd f3f2 583d 645b d8bd
0.09648973 0.107411146 0.06900273 0.0294848 -0.055546034 -0.067549616 0.05296607 -0.105643064

cb1_1.bn1.weight f4 [8]
00000000: 73e1 003f 3c29 88be 5d3f 5fbf 699f 313f
00000010: 3c29 9d3e 568a 8240 6bf6 6abf 81c9 21bf
0.5034401 -0.2659396 -0.8720606 0.69383866 0.30695522 4.0793867 -0.91782254 -0.63198096

cb1_1.bn1.bias f4 [8]
00000000: 5402 663f 6e02 efbf 1c1e 20c0 3842 03c0
00000010: 32e6 edbf 1573 a4bf 388b ccbe 74e1 0340
0.898473 -1.8672616 -2.5018377 -2.0509167 -1.8585875 -1.284762 -0.39949965 2.0606356

cb1_1.bn1.running_mean f4 [8]
00000000: ba0d 41c4 1e72 d0c2 3b11 dac2 c8fe 79c4
00000010: 5f33 9ec4 222d 3044 38b1 19c4 a56f 3942
-772.2145 -104.222885 -109.03365 -999.98096 -1265.6053 704.7052 -614.76904 46.359028

cb1_1.bn1.running_var f4 [8]
00000000: 0555 414a c078 0e49 2348 0349 6191 0e4a
00000010: 6d51 a14a 2612 8049 bd45 234a 352c df48
3.1675532e+06 583564.0 537730.2 2.3358322e+06 5.2860705e+06 1.0491568e+06 2.6750552e+06 457057.66

cb1_1.conv2.weight f4 [8, 8, 3, 3]
00000000: 89fc 063e 4510 28c0 6b45 dfbf 4423 0fbf
00000010: 4dea babf 0b71 11c0 a690 58c0 9eb0 6dc0
00000020: 4713 46c0 a5ea e8bf d24e 7fbf b48c 8abf
00000030: b5bd 6cbf e2ba 62bd e779 adbf 7e19 f0bf
00000040: 765c 6fbf 9aed 89bf d46f ccbf 3077 f73e
00000050: 8ee5 5640 37f5 c9bf 1cc6 553f ed48 4840
00000060: 03e2 563f db0d 4640 a80f 4b40 5c7f a23f
00000070: 3ec6 8fbf bb5b d73c e171 c23f 6ab1 e93e
00000080: 7da6 b1be d755 e53f ecfe 083e e9db 04c0
00000090: e8aa d2bf 6ea7 38c0 29ad 86bf ccf6 b6bf
000000a0: 852a 98bf 2fcb 36bd e5b4 93bf 4373 d8bf
000000b0: ba6e b3bf eab0 d0bf 859e f5bf 84ec 5dbf
000000c0: a31c 05c0 de60 aabf a282 a5bf ac57 e83f
000000d0: fa3b f13f a3fd 453f 3a0c e8bf 4395 35bf
000000e0: 47d9 543d 5451 43bf 5a7b 51bf 45d3 99bf
000000f0: bad0 1abf 6ef5 37bf c39b 333d 0768 2e40
00000100: bb36 ab3f 1764 2040 fcb1 d1bf 9070 74be
00000110: 92a6 933f 823f 7ac0 1eb2 70be f575 fbbf
00000120: 4e7b 1cc0 2647 01c0 c08a c0bf 0ae0 57bf
00000130: 4282 a2bf a27d 79bf f000 89bf c44d f7bf
00000140: b433 aebf 9161 09c0 098f c8be 9c4f cdbf
00000150: e097 0ac0 67ea 0b3f 96c4 973f 1292 8bbe
00000160: 4746 e53d 2d37 74be bf30 66bf 705b d73e
00000170: c4e1 1b40 8bf1 ebbf 62bd 1c3d 06ae 5d3f
00000180: a262 693f f66b 8e3f b9ca 2a3f a172 333f
00000190: f810 223e 6708 bdbf 8972 8dbd 911d c03f
000001a0: 98a5 593f 15d1 e0bd ad05 3bbd d1b5 1a3e
000001b0: b4ce 3bbf 709c 0bbf c855 8bbf 97a5 cbbf
000001c0: 2cfd 41bf 7d38 453e dbae 90be b536 3cc0
000001d0: 057c 85bf 926e 8ebf bc21 4fbe 32d8 3e3f
000001e0: 8d4e 9e3f d25e 55bf 9f0a 61bf 33d3 663e
000001f0: fd57 3040 bd08 21c0 e324 fc3e 14b9 a5be
00000200: 999e 273f f6f8 843f 4e42 413f c4c1 edbe
00000210: dde3 b3bf 53b1 e0bf e9f5 04c0 b741 51bf
00000220: b708 33bf 734b abbd 05de a63f e373 bfbf
00000230: 70e6 aabf 1852 c93f 87d6 f23f d7f4 f53e
00000240: fc02 0640 024c de3f 025a 8d40 74c7 5c3f
00000250: 59dd 9c3f d15e 0640 fc00 cdbf f2d3 acbf
00000260: 648c ebbe ea90 973c 6bae 663e 58c9 ff3f
00000270: 3b86 963c 9d32 c53e 3310 763f 224f 06c0
00000280: 3382 db3f 6d78 7bbd 664a cd3e 3733 88bf
00000290: 35ca d1bf 10ba 943f 4207 9bbf d308 11bf
000002a0: a4f7 7c3e 0960 d3bf b62a 62c0 0fc2 c1bf
000002b0: 0f5c f73e 27b7 12be 3d9c 97bf 5aac 4ebf
000002c0: 1a70 193f 0b91 bc3d ae35 b93e e833 b43f
000002d0: 2dcb 0d3e 16aa 3940 bc9b df3f 7972 0f3f
000002e0: 3c2e b73f f229 303f db81 343f 45b2 bd3f
000002f0: 9c87 353f c58e a83f 30dc ae3f 761f b23e
00000300: 9a41 273f 447e 813e 56b2 8dbf 469d 3040
00000310: 7a86 343f 6ac9 3240 7c95 6740 643c 7e40
00000320: 52e1 2240 7ebb a93f d398 ac3f eda3 1b40
00000330: 3403 983f 41dd 0e3e 7c8d 813f 6ac1 3ebe
00000340: cd6b 313f 62c4 1b40 ea5f 883e 145b 2f3e
00000350: f04a 4240 d26a 33bf 3f3e 24c0 048d 89bf
00000360: 9743 473e f4f6 99be ff03 12c0 4a77 9b3c
00000370: 7ea6 3dbe 977e 7f3e f44a 06bf f3de 9abe
00000380: aba6 0fc0 ee7f 693f 40f2 203f ce07 fdbc
00000390: 13da a0be 9236 1e3f 89a4 7a3f e02e b0be
000003a0: c5a0 523f ecb5 0d3f c4ae 7dbe ab3b 003f
000003b0: f47f a63e 6498 853f 1967 c63f db96 833f
000003c0: 1c6c 1e40 e969 f53f 2c1f 6a3f 2701 1cbd
000003d0: 17b8 f93d ae6d a53f 48da 643e abe9 923e
000003e0: 8169 ed3e 2842 b6bf 2569 a0bf 2713 31bf
000003f0: 8620 9bbf 9702 f3be ed9b b4be a8f4 bebd
0.13182272 -2.625993 -1.744306 -0.55913186 -1.4602753 -2.2725246 -3.3838286 -3.7139049
-3.0949266 -1.8196608 -0.99729645 -1.0824189 -0.9247697 -0.055354007 -1.3552827 -1.875778
-0.9350046 -1.0775635 -1.5971627 0.4833312 3.357761 -1.5777959 0.83505416 3.129451
0.83938617 3.0945957 3.1728306 1.2695117 -1.1232374 0.026288858 1.5191003 0.4564317
-0.34697333 1.7916821 0.13378495 -2.0759223 -1.6458406 -2.885219 -1.0521594 -1.4294066
-1.1887976 -0.044627365 -1.153958 -1.6910175 -1.4018166 -1.630399 -1.9189001 -0.8668902
-2.0798728 -1.3310812 -1.2930491 1.8151755 1.8846428 0.77340144 -1.8128731 -0.7093088
0.051965024 -0.7629597 -0.81828845 -1.2017599 -0.6047474 -0.7185887 0.043849718 2.7250993
1.3376077 2.506109 -1.6382442 -0.23871064 1.1535208 -3.9101262 -0.23505446 -1.9645373
-2.445026 -2.0199676 -1.5042343 -0.8432623 -1.2696002 -0.97457325 -1.0703411 -1.9320607
-1.3609529 -2.14658 -0.39171627 -1.603992 -2.1655197 0.54654545 1.1856868 -0.2725988
0.11195045 -0.23849173 -0.8991813 0.4206195 2.4356546 -1.8433088 0.038266547 0.86593664
0.91166127 1.1126697 0.6671558 0.70096785 0.15826786 -1.4768189 -0.069066115 1.5009023
0.850183 -0.10977379 -0.04565971 0.1510842 -0.7336228 -0.5453558 -1.0885553 -1.5909909
-0.75776935 0.1925983 -0.28258404 -2.940839 -1.0428473 -1.1127493 -0.20227712 0.7454864
1.2367722 -0.8334781 -0.8790683 0.22541504 2.7553704 -2.5161583 0.49246892 -0.32367766
0.65476376 1.0388477 0.754918 -0.46436894 -1.4053913 -1.7554115 -2.0775092 -0.817409
-0.6993517 -0.08364 1.3036505 -1.4957241 -1.3351574 1.5728178 1.8971719 0.4803836
2.0939322 1.7366946 4.4172373 0.8624184 1.225505 2.0995371 -1.6015925 -1.350218
-0.46005547 0.018501718 0.22527473 1.998332 0.018374553 0.38515177 0.9611847 -2.09858
1.7149109 -0.061394144 0.40095824 -1.064063 -1.6389834 1.1619282 -1.211159 -0.5665409
0.24703842 -1.6513683 -3.5338569 -1.5137347 0.48312423 -0.1432768 -1.1844555 -0.8073174
0.5993668 0.09207352 0.36173767 1.407834 0.13847037 2.9010062 1.7469401 0.56034046
1.4310985 0.68814003 0.70510644 1.4820029 0.7091005 1.316857 1.3660946 0.34789628
0.65334475 0.25291646 -1.1070049 2.7595992 0.70517695 2.7935433 3.6184988 3.972436
2.5450025 1.3260343 1.3484138 2.4318802 1.1875978 0.13951589 1.0121303 -0.18628469
0.69305116 2.4338613 0.26635677 0.17124587 3.0358238 -0.7008487 -2.5662992 -1.074616
0.19459377 -0.30071223 -2.281494 0.01897778 -0.18520543 0.24950634 -0.5245812 -0.30248222
-2.2445476 0.9121083 0.62869644 -0.03088751 -0.31416377 0.6180202 0.9790731 -0.34410763
0.82276565 0.55355716 -0.24773699 0.50091046 0.32519495 1.0437131 1.5500213 1.0280412
2.4753485 1.9172946 0.91453815 -0.038087036 0.121933155 1.2924097 0.22348893 0.286939
0.46369556 -1.4238939 -1.2532088 -0.6916985 -1.21193 -0.47462913 -0.35275212 -0.09324008

cb1_1.conv2.bias f4 [8]
00000000: c3eb 1f3e db09 ab3e 3c5b 04bd 2ea8 903d
00000010: 0970 323e 652c 63be 0b96 17be 7e37 453e
0.1561728 0.33405957 -0.03231357 0.07063328 0.1742555 -0.22184904 -0.1480333 0.1925945

cb1_1.bn2.weight f4 [8]
00000000: 902f 943e 42e4 d1bc ab09 db3f 778a 393e
00000010: a568 723f ba4d 23c0 e6a3 1640 efa2 d03f
0.28942537 -0.025621537 1.7112325 0.18119226 0.94690925 -2.551619 2.3537536 1.6299723

cb1_1.bn2.bias f4 [8]
00000000: 0f16 af3f 0488 cfbf ea53 1ebe cb19 06c0
00000010: 793e 0d3f 04e1 ebbf fb36 87bf 82f8 cfbf
1.3678607 -1.6213384 -0.15461698 -2.0953243 0.5517345 -1.8428044 -1.0563654 -1.6247714

cb1_1.bn2.running_mean f4 [8]
00000000: 4a86 c4c1 f50b 12c1 febf d441 2c0c 0541
00000010: 3244 8cc1 3c9b 97c1 f581 d7c1 3bf9 7841
-24.56557 -9.127919 26.593746 8.315472 -17.533298 -18.950798 -26.938456 15.560847

cb1_1.bn2.running_var f4 [8]
00000000: 8f80 eb42 a542 a042 8dcc 7543 cd4c 0c43
00000010: 08a7 0444 6f21 6043 67b5 f543 3467 9343
117.75109 80.130165 245.79903 140.3 530.60986 224.1306 491.4172 294.80627

cb1_1.conv3.weight f4 [8, 8, 1, 1]
00000000: 46a8 e2bf 1bec 863f 8ce6 463f 5302 b6bf
00000010: a977 5cbf 623c 57c0 5384 8bbf 7be9 51be
00000020: 8550 dcbd 1e0a a9bf bdfd 37c0 fae7 c43f
00000030: e000 a63f 6cec 8d3d 8f48 773f ddf5 e8be
00000040: 55f2 1dbe 221b 9e3f d526 033f e661 563e
00000050: fc26 cd3f 054d 8ebf 5862 0640 0031 21bf
00000060: 9b49 8ebf d861 833f 79ee 0240 c19e 08c0
00000070: 099a 1440 f1bc 14bf 1675 993f 7e15 35c0
00000080: bad6 0cbd 396e 423e 1786 cebf b634 3dbf
00000090: 484a fe3f 5050 80bf 2d77 7040 071a 93bf
000000a0: 5cd6 c13e f316 863e 92b2 13bd 8c1d 53bf
000000b0: 725a 463e db4b a2bf 8d2d 4340 1898 95bf
000000c0: d70a d6bf 999d 2ebd eac0 363f 402c 113f
000000d0: d1a5 7cbf 514d e7bf dff2 12c0 39c0 42c0
000000e0: eaa7 bf3f f4ac 0cbf e629 febf eee3 8dbe
000000f0: c64b 15be f6d3 17c0 6f2c 133f c9a4 603d
-1.7707603 1.0540804 0.77695537 -1.4219459 -0.86120087 -3.3630605 -1.0899757 -0.20499222
-0.107575454 -1.3206213 -2.874862 1.5383294 1.2969017 0.069298595 0.9659509 -0.4550008
-0.15424474 1.235203 0.5123113 0.20935783 1.6027522 -1.1117254 2.0997524 -0.62965393
-1.1116213 1.0264235 2.0458052 -2.1346896 2.3219016 -0.581008 1.1988857 -2.8294368
-0.034384467 0.18987359 -1.6134671 -0.73908556 1.9866419 -1.002451 3.757274 -1.1492318
0.37858856 0.26189384 -0.03605897 -0.8246696 0.1937044 -1.2679399 3.0496552 -1.168704
-1.6722058 -0.042630766 0.71388113 0.56708145 -0.98690516 -1.807047 -2.2960737 -3.0429823
1.4973118 -0.54951406 -1.9856536 -0.2771296 -0.14579687 -2.372312 0.57489675 0.05484465

cb1_1.conv3.bias f4 [8]
00000000: 85a0 de3e 9a08 2dbd 7c59 8b3d 443f b8be
00000010: 665f 433f fc51 42bf 2832 013e 591c 9c3b
0.43481842 -0.04224453 0.06804177 -0.35985768 0.7631744 -0.7590635 0.1261679 0.0047641215

cb1_1.bn3.weight f4 [8]
00000000: 184c b4bf 2f13 dabd 0008 7ec0 1f1a 8a40
00000010: a17b de3f e0a5 153d 5694 99bf 55ca 473f
-1.4085722 -0.1064819 -3.9692383 4.3156886 1.7381479 0.036535144 -1.1998394 0.7804311

cb1_1.bn3.bias f4 [8]
00000000: bccc 0840 aecc cb3f c5fa 473e c7b5 8ebf
00000010: ffec 9abf c917 0c40 4c52 2c40 2823 d0bf
2.137496 1.5921838 0.19529255 -1.1149224 -1.2103575 2.1889517 2.692523 -1.6260729

cb1_1.bn3.running_mean f4 [8]
00000000: 3d93 92c0 9ee2 ecbe 7f01 0c40 fda2 883e
00000010: f5c7 3040 4110 8b3f de80 aec0 c93b d93e
-4.5804734 -0.46266645 2.1875913 0.2668685 2.7622044 1.0864335 -5.453231 0.42428425

cb1_1.bn3.running_var f4 [8]
00000000: 5020 7b41 b36d b441 e7eb 2841 1293 1141
00000010: 431d 1e42 384e 6841 18a0 5e41 9ac7 e241
15.695389 22.553564 10.557593 9.098406 39.528576 14.519096 13.914085 28.347462

up1.bn.weight f4 [8]
00000000: b1d1 2640 775e 703e 593e 56be a526 2340
00000010: 2044 c43f 6988 6c40 1662 2340 cd3b f63f
2.6065485 0.23473535 -0.20922221 2.5492337 1.533329 3.6958258 2.5528617 1.9237

up1.bn.bias f4 [8]
00000000: 0e12 e83d b54a 0abf 2c55 edbd a340 41be
00000010: e033 3bbe 1409 853e 3b34 e5bd 367d ed3e
0.11331569 -0.54020244 -0.11588511 -0.18872313 -0.18281507 0.2598349 -0.11191603 0.4638459

up1.bn.running_mean f4 [8]
00000000: b5b3 0b40 e2e2 cb3f eb57 d53f 3da6 9a3f
00000010: d1cb bd3e bd6a 0c40 6ee8 2b40 dcd2 85bc
2.1828434 1.5928614 1.6667455 1.2081982 0.37069562 2.1940148 2.6860614 -0.016335897

up1.bn.running_var f4 [8]
00000000: 46a5 eb3f b431 c23d caa2 b640 12d6 8440
00000010: 1905 fb3e c7a3 c33c e02c bc3f b292 4f38
1.8409812 0.09482136 5.7073717 4.1511316 0.49027327 0.023881806 1.4701195 4.9489267e-05

cb2_1.conv1.weight f4 [8, 6, 3, 3]
00000000: 5652 58bf 2952 2440 db6c 7540 a25e 89bf
00000010: b92b dc3f 572a 1040 ccb3 8abf 92d7 013f
00000020: bf3a 463f a472 36bf 5832 913f 0367 6540
00000030: 3f35 48bf 4e2e d13f f9ba 4840 d3ae 47bf
00000040: c01d 94bf 5e8b 5b3f d7d8 933f 88b1 4840
00000050: 539f 8040 7ed8 adbe 2c46 1140 bbfe 7240
00000060: 030a 75bf 0400 29be 385b 203e 63ac a13f
00000070: 010f f93e 5aae f93f 832e 203f fedf 03be
00000080: 7c34 00bf 67b9 56bf 9590 09c0 88ab 5cc0
00000090: 8c09 033f 36cf b23f 4c86 4d3f 3d27 10be
000000a0: 1368 53bf 7696 663d ae1c 063f 01da 0540
000000b0: df6b 1140 d60d 0640 590b 3540 0ea9 203f
000000c0: e686 6f3f 5dad 0340 96f3 cb3e da81 9e3f
000000d0: a51e 5b3f 33b2 703f 77b5 18be 01a1 433f
000000e0: 638a 57bf 205d 973f 7924 9b3f e408 983f
000000f0: b275 b73d 9a81 f93f be16 803e 75c0 eabd
00000100: 730f 0a40 af43 283e 80d5 233f e1c7 733f
00000110: 0014 0e40 90ba 4b3f 2e8e c93f bc54 dd3f
00000120: 785b c43f 68ed 8d40 8ff3 c33f c8ea 2140
00000130: 30b7 8740 102a 0d40 b65b 9e3f ff2d 2840
00000140: 8c01 f63f 9b35 0040 1c1c 803f 7a43 e0bf
00000150: b54a cabe b376 a8be 3a8e b33e 2bc3 d2be
00000160: 3105 1c40 566a 5d3f 1201 3f3f 9588 9bbe
00000170: 2173 fcbe e16a 7c3e 44b0 a73f 2751 033f
00000180: b7b9 b13e 507b 493c 53db bf3f fae0 c13f
00000190: a859 aa3f da8c 76bf 83e7 21bf 5545 7b40
000001a0: 61b1 9d3f 09b0 26bf 8619 0540 1914 4a40
000001b0: e6a1 48be 63bb 13c0 5e92 25c0 285c d83f
000001c0: 7451 23bf 600a 873e 3424 e33f e044 b73b
000001d0: 9946 ef3e f0a5 acbe 3dc3 49c0 dc3a 7bc0
000001e0: 921c d43f afac a9bf ec9b 43bf 2766 da3f
000001f0: 89b3 cabd 5e8c 75bb 5986 583e e3ba 22c0
00000200: 5d25 72c0 03dc 0940 d01a 5cbf c68d 83bf
00000210: 9806 5240 8125 043f fa26 a53f 5bc5 2340
00000220: 7e23 14bf fa22 0340 e6ea 2740 6d97 4f3f
00000230: 7e37 c23f 9eb2 1440 2d44 3240 312a ad3e
00000240: 093e c0bf 4360 debf 2c15 073f 1d5a a4bf
00000250: 199d 01c0 55c5 b43f 0401 a13e 494e c5bf
00000260: c520 b33e c41f a6bf e63e 22bf 6659 7840
00000270: fa37 1fc0 3ab5 d9bf 3170 833f 98d8 a33e
00000280: d84f 10bf b7b0 fdbf 78af 5ebf e24b abc0
00000290: 6dce 63c0 0e5b 493d 6221 4fc0 8e28 10c0
000002a0: b3ea 06bf 75d5 c0bf 6a68 3fc0 31d6 92bf
000002b0: 9514 50c0 8b5b 82bf 467f 80be 8fd5 debf
000002c0: a59a 24c0 cc7d 4c3f 1c51 5fbd 4991 ce3e
000002d0: 97e1 1ac0 b862 75c0 c136 14c0 d169 0c3f
000002e0: 9f72 d6bf 977f 0cc0 71c1 ff3f 920f 2fbf
000002f0: 49a6 2bbf 358f 3dbf 7c1e b03f f87c 80be
00000300: 9255 a4bf 0b38 08bf 4485 ac3f ab4d eabf
00000310: 6641 acbf 44b4 06c0 903b 9d3f 1568 083e
00000320: bddd 1dc0 21ed 783e dfcd 20bf 89a0 7dbf
00000330: bf67 0d3f 8321 eebf 4bbf d7bf f1bb 00c0
00000340: 90e0 acbf 3bc0 82bf 2d7a a53e bfd1 04c0
00000350: 3cf2 b1bf 5860 c5be 10b3 eabf 02bd 09bf
00000360: f17c b3bf 1188 d93f a89b 7840 1c9a 1fbf
00000370: 8784 1140 3cc5 8c40 4d87 34bf f181 133f
00000380: 2d9a e33e 9101 583f 6636 1940 1e0a 9040
00000390: 3ac1 373f 850f 1140 3ad2 5440 a743 1abe
000003a0: 7adf 2e3c 5fac 00bf 0fb7 8f3f 5caa f03f
000003b0: e7e6 8440 41bb 83be 363a 663e db07 dc3f
000003c0: 58f3 c6bf 3594 bdbf ed52 81be 77ba 063f
000003d0: 95d6 2bbf 944c cc3e 09a1 8f3f 03da d83f
000003e0: 35e1 f7bf 1236 9fbf e2f8 98be 9dd4 84bf
000003f0: a1b2 38bf bfc0 f8bd 2336 ff3f 7f9d a03d
-0.84500635 2.5675147 3.834769 -1.0732005 1.7200843 2.2525842 -1.083612 0.5071956
0.7743339 -0.7126868 1.1343489 3.5844123 -0.7820625 1.6342256 3.136412 -0.78001136
-1.1571579 0.8575953 1.1550549 3.1358356 4.0194488 -0.33954233 2.269908 3.7967975
-0.957184 -0.16503912 0.15659797 1.2630733 0.4864426 1.9506333 0.6257097 -0.12878415
-0.50080085 -0.8387665 -2.1494496 -3.4479694 0.5118644 1.3969486 0.80283046 -0.14077468
-0.8258068 0.056295834 0.5238751 2.091431 2.272209 2.0945945 2.8288176 0.62757957
0.93565214 2.0574563 0.3983428 1.2383378 0.85593635 0.9402191 -0.14912973 0.7641755
-0.84195536 1.1825294 1.2120506 1.1877713 0.089579955 1.9492676 0.2501735 -0.114624895
2.157193 0.16432069 0.6399765 0.95226866 2.2199707 0.79581547 1.5746515 1.7291484
1.5340414 4.4352303 1.5308703 2.529955 4.2411118 2.2056923 1.2371738 2.6278074
1.9219222 2.0032718 1.0008578 -1.7520592 -0.39510122 -0.3290306 0.35069448 -0.41164526
2.4378169 0.8649038 0.7461101 -0.3037764 -0.49306586 0.24650146 1.3100667 0.51295704
0.34712002 0.012297466 1.4988807 1.5146782 1.3308611 -0.9630867 -0.63243884 3.9261067
1.2319757 -0.6511236 2.0796828 3.1574767 -0.1959301 -2.3083122 -2.5870585 1.6903124
-0.6379616 0.26375103 1.7745423 0.0055929273 0.4673355 -0.3372035 -3.1525414 -3.9254675
1.6571219 -1.3255824 -0.7640979 1.7062424 -0.09897525 -0.0037467699 0.21145 -2.5426567
-3.7835305 2.1540534 -0.8597841 -1.0277641 3.2816525 0.51619726 1.290252 2.5589206
-0.57866657 2.0490098 2.623712 0.8109043 1.5173185 2.323402 2.7854111 0.33821252
-1.5018932 -1.7373127 0.5276668 -1.284 -2.0252135 1.4122721 0.31446087 -1.5414516
0.3498594 -1.2978444 -0.63377225 3.8804564 -2.4877915 -1.7008431 1.0268613 0.32001185
-0.5637183 -1.9819554 -0.86986494 -5.353013 -3.5594742 0.049159102 -3.2364125 -2.2524753
-0.5270187 -1.5065142 -2.990748 -1.1471616 -3.2512562 -1.0184187 -0.25097102 -1.7408923
-2.5719388 0.7987945 -0.05452071 0.4034522 -2.420019 -3.8341503 -2.315842 0.54848963
-1.675373 -2.1952875 1.9980909 -0.68383133 -0.67050606 -0.7404664 1.3759303 -0.25095344
-1.2838614 -0.53210515 1.347817 -1.8304952 -1.3457458 -2.1047525 1.2283802 0.13320954
-2.4666588 0.24309207 -0.62814134 -0.9907308 0.5523643 -1.8603977 -1.6855253 -2.011471
-1.3506031 -1.0214914 0.32319775 -2.075302 -1.3902049 -0.38550067 -1.8335896 -0.5380403
-1.4022504 1.6994649 3.8845005 -0.6234453 2.2737138 4.3990765 -0.7051895 0.5762015
0.44453564 0.8437739 2.3939452 4.501235 0.71779215 2.2665722 3.3253312 -0.1506487
0.010673398 -0.5026302 1.122774 1.880199 4.1531863 -0.257288 0.22483143 1.7189897
-1.5543013 -1.4810854 -0.2525858 0.5262827 -0.671243 0.39902174 1.1221019 1.6941532
-1.9365603 -1.2438376 -0.29877383 -1.0377384 -0.72147566 -0.121461384 1.9938396 0.0784254

cb2_1.conv1.bias f4 [8]
00000000: 80c5 973d ff3b fc3d 4af6 d43d 0321 05be
00000010: 1708 debd 08fe babd bdc8 a83d 502a 03be
0.07410717 0.12316131 0.103985384 -0.13000874 -0.10841387 -0.09130484 0.08241413 -0.1280911

cb2_1.bn1.weight f4 [8]
00000000: 29ad 473e f4cc 473f 57df 1340 5876 03c0
00000010: 4d74 3e40 5384 493f 86a2 69be 8975 eb3f
0.19499649 0.7804711 2.3105066 -2.0540981 2.9758484 0.78717536 -0.22815904 1.8395244

cb2_1.bn1.bias f4 [8]
00000000: 34f4 333e afc7 b8be b91b 803d 3402 493e
00000010: 864a 973f cb3b edbe c524 e1bf 23e0 66be
0.17573625 -0.36089846 0.06255288 0.19629747 1.1819618 -0.4633468 -1.7589346 -0.22546439

cb2_1.bn1.running_mean f4 [8]
00000000: bbfd c143 6055 8043 eb13 1ac3 58c2 71c4
00000010: 21dc 1d44 1712 e643 2449 32c4 72cf 0844
387.98227 256.667 -154.0778 -967.0366 631.4395 460.14133 -713.1428 547.24133

cb2_1.bn1.running_var f4 [8]
00000000: 3b22 0e4a 0336 534a 3a00 1f49 799b 664a
00000010: 806e 164a 12fe 974a eb60 844a e80f 1749
2.3287188e+06 3.4604808e+06 651267.6 3.7782702e+06 2.464672e+06 4.980489e+06 4.3377815e+06 618750.5

cb2_1.conv2.weight f4 [8, 8, 3, 3]
00000000: 78d4 b33e 6145 b7bf 6d0b 09c0 feaf 7fbf
00000010: e56b 01bf 68b6 09c0 4f79 a9bf 675f 77be
00000020: d901 4cbe fb3d 3ec0 eb96 9fbf 0a42 31be
00000030: a780 3cc0 b00b 70bf 8e37 ccbe d1cd 10c0
00000040: 2558 c4bf 2a33 dbbf 1dd7 0e3f 4fdf 163d
00000050: 69dc c53f c2c1 0c3f e252 833d 3ce9 fa3f
00000060: fce0 e23f 423a 22be 65f6 0b3e f1e1 95bf
00000070: 1acd cfbf d1be b6bf f7c0 d5be 0874 77bf
00000080: 9f36 e1be a4ce 36bf a707 09be 93c6 16bf
00000090: 86bb 0dbf e4d2 2ebf 1cc9 22c0 511c edbf
000000a0: e70c cebe aded 22c0 5a86 afbf d394 84bf
000000b0: 353e 87bf d793 c9bf 4ab8 15c0 66bc 01c0
000000c0: feea 01c0 868e dcbf 6cb7 65bf e5e5 dcbf
000000d0: dd37 ffbf 3278 56bf 2766 94be ee84 5bbf
000000e0: ea6a 2bbf 74a9 29bf ca1e 3fbf 050c 7dbf
000000f0: 71b8 32bf faf4 2ebf 8c69 e6be 6e8b e3bf
00000100: 408a 18c0 ed2a 9fbf bb37 7bbf 5d70 30bf
00000110: 7e40 993f 57c8 e93d 5d3c 463e 6e51 0f40
00000120: 3020 e8be bd4a a43f 53da 3340 176e 80bf
00000130: d5d5 9abf e0b3 273f 925c 7cbf 1d71 adbf
00000140: 4742 1cbf 1159 18c0 8b64 65bf c0ab 613f
00000150: eb2d 5cbe 128e 033e 69c4 793e 5aa1 93bf
00000160: a173 873f b97b d93f 4607 21c0 1351 05c0
00000170: 4b70 2ac0 4249 c8be 2e9d 19c0 2a5c 28c0
00000180: 9f17 23be c5a3 e6bf 8767 01c0 9b89 0f3f
00000190: 119f bb3f 8664 0e40 ed69 45bf 2d24 65bf
000001a0: 022a 583f a601 05c0 7727 51c0 3e27 40be
000001b0: f361 d83f 49c9 1e40 c690 7740 ae93 9ebe
000001c0: c010 f83f c955 ec3f 516d c1bf cd29 04be
000001d0: f20d 8fbe cfd9 963f deea f73f 3d4e 0440
000001e0: db7c f1be 25d6 24bf e5c3 683e 2695 87bf
000001f0: 44b0 39bf f90f 8fbe 2614 293f ef9a 5e3e
00000200: 4f01 da3e 4e34 683d ebcd 1ebe 4ebc c0bc
00000210: e17c 91bf 8547 cabe 7074 86bd b873 0cbf
00000220: 2698 eabf 632a 58bf 0056 663c 9ead b9be
00000230: 34ed 873f 58f0 ffbd 1a7b 29bf a01c 06bf
00000240: 2ab5 1fbf 2963 04c0 1217 dfbf aae9 e73f
00000250: 44b0 70bf c6f8 5bc0 290c be3f 3c1a af3d
00000260: b9e9 6ebf bf84 96bf d7d3 debf 3fdd 29c0
00000270: a49a 2f3f 8154 a3be bf75 22c0 269f d43f
00000280: 97b9 fbbd c56c d8bf cd0a 7abe 3f12 e43f
00000290: c009 493f 1547 a4bf 93fb 533f eea0 1540
000002a0: e6df cdbf d72e 91bf 6117 db3e 7313 a33e
000002b0: 4b95 ebbf 28ec 41c0 ed4f 2e3f d596 9fbf
000002c0: 0062 93c0 0b05 373f df0c 693e 070e a1bf
000002d0: 0551 5dbf 7a78 c2bf 37b1 33c0 498d aebd
000002e0: e594 5dc0 8b22 97be 6d96 e33f 7cb8 3fbf
000002f0: 95b5 1f3f 66e8 35c0 1d3d 6ac0 ba3b 3ac0
00000300: cf64 f3bf 9dfa 0fc0 a000 e5bf bc9f 113f
00000310: 72d1 f5be 6fc8 93bf 92d1 203f 3e5e 913f
00000320: aee4 6c3f e353 1d3f 2897 f63f ea78 1540
00000330: fb68 0440 049c 2440 cf3b 1740 4542 0140
00000340: 4431 d53f ff57 583f a8b4 a23f ac9d ba3f
00000350: 9b72 4040 9259 e63f 593b 0540 ee22 7640
00000360: 68ac ca3f f82f 3740 cb69 543f 2582 07bf
00000370: 3e8c cd3f 2fa6 413f 554b 38bf a863 88be
00000380: 9054 58bf 8811 2b40 b7a1 0b3f 07cc b1be
00000390: 7a30 e8bf f438 95bf 9751 f4be 88d1 c6bf
000003a0: 2cae 38c0 c30f 9bbf f79c 173f 2b88 1bc0
000003b0: 9a93 d0bf 5081 6bbf c7ce babf 88b9 0bc0
000003c0: 8391 f4bf d9aa 37bf 68fa 02c0 1a48 8f3f
000003d0: d20e 7d40 20c9 5f3f 8de1 2dbe c7a6 5040
000003e0: 1c1b c53e 7224 05c0 0be0 76bf d008 13bf
000003f0: f2a8 9c3f fb42 903f 40bc 183f 27f3 36bf
0.35123038 -1.4318048 -2.1413224 -0.9987792 -0.5055526 -2.1517582 -1.3240145 -0.24157487
-0.1992258 -2.972533 -1.2467932 -0.17310348 -2.9453523 -0.93767834 -0.39886135 -2.262562
-1.53394 -1.7124989 0.55796987 0.036834057 1.5457889 0.5498315 0.06412293 1.9602427
1.772491 -0.15842536 0.13668211 -1.1709577 -1.6234467 -1.4276983 -0.41748783 -0.96661425
-0.43986985 -0.7140906 -0.13381825 -0.5889675 -0.55364263 -0.68290544 -2.5435247 -1.8524266
-0.4024422 -2.5457566 -1.3712876 -1.0357918 -1.0565859 -1.5748242 -2.339373 -2.027124
-2.0299678 -1.7230995 -0.89733005 -1.7257658 -1.9938923 -0.83777153 -0.28984186 -0.8574971
-0.6696001 -0.6627419 -0.74656355 -0.98846465 -0.69812685 -0.68342555 -0.450024 -1.7776926
-2.383438 -1.2434975 -0.9813191 -0.6892145 1.1972806 0.11415165 0.19358964 2.239345
-0.45337057 1.2835308 2.8102005 -1.0033597 -1.2096506 0.6550884 -0.9857875 -1.3550144
-0.6103863 -2.3804362 -0.8960654 0.88152695 -0.21501891 0.12847164 0.24391331 -1.1533616
1.0582162 1.6990882 -2.516069 -2.0830734 -2.6631038 -0.3911839 -2.4002185 -2.6306252
-0.1592698 -1.8018728 -2.0219438 0.56069344 1.4657918 2.2248855 -0.77114755 -0.89508325
0.844391 -2.0782256 -3.2680337 -0.1876497 1.6904892 2.4810355 3.8682113 -0.30972046
1.9380112 1.846368 -1.5111486 -0.1290657 -0.27940327 1.178522 1.9368551 2.0672753
-0.4716557 -0.6438926 0.22730978 -1.0592391 -0.72534585 -0.27941874 0.6604637 0.2173879
0.42579123 0.056690507 -0.15508239 -0.02352729 -1.1366235 -0.3950769 -0.065651774 -0.5486407
-1.8327682 -0.84439677 0.01405859 -0.36265272 1.0619264 -0.12497014 -0.66203463 -0.5238743
-0.6238581 -2.0685523 -1.7428916 1.8118184 -0.9401896 -3.437059 1.4847461 0.08549926
-0.9332538 -1.1759261 -1.7408398 -2.6541288 0.6859534 -0.3190041 -2.5384367 1.6611068
-0.12291258 -1.6908194 -0.24418183 1.7818068 0.785305 -1.2834193 0.82805747 2.3379474
-1.6083953 -1.1342419 0.42791274 0.31850776 -1.8404936 -3.0300388 0.6809071 -1.2467905
-4.605713 0.7149207 0.22758816 -1.2582406 -0.8645175 -1.5193017 -2.8076913 -0.08523042
-3.4622128 -0.29518542 1.7780281 -0.74890876 0.6238645 -2.8423095 -3.65998 -2.9098954
-1.9015139 -2.2496712 -1.7890816 0.5688436 -0.48011357 -1.1545542 0.6281978 1.1356885
0.9253644 0.61456126 1.9264879 2.335505 2.0689075 2.5720224 2.3630254 2.0196698
1.665566 0.8450927 1.2711382 1.4579368 3.006995 1.7996085 2.0817473 3.845882
1.5833864 2.8623028 0.8297393 -0.5293296 1.6058424 0.756442 -0.7198995 -0.26638532
-0.8450403 2.672945 0.5454363 -0.34725973 -1.8139794 -1.1658006 -0.47718498 -1.5532694
-2.8856306 -1.2114185 0.59223884 -2.430186 -1.6295044 -0.9199419 -1.4594353 -2.183199
-1.9106907 -0.7174507 -2.0465336 1.1193879 3.9540296 0.8741627 -0.16980572 3.2601793
0.38497245 -2.0803494 -0.9643561 -0.5743532 1.2239058 1.1270441 0.59662247 -0.7146477

cb2_1.conv2.bias f4 [8]
00000000: 5b58 35bd 02c7 57be 0a37 1f3e ed38 113e
00000010: 2450 a43c 5f72 133e 555b 68be 24bc 3bbd
-0.044273715 -0.21072009 0.1554834 0.14181872 0.020057745 0.14399098 -0.2269109 -0.04583372

cb2_1.bn2.weight f4 [8]
00000000: 6bd1 0dbe 1900 3d3e dbb4 94bd 7b4f 34bd
00000010: 7909 0640 53dc 9040 cd7b 92bf 03ef 873e
-0.13849418 0.18457069 -0.07261058 -0.04402111 2.0943282 4.526895 -1.1444031 0.2654954

cb2_1.bn2.bias f4 [8]
00000000: ec64 aabf d6d9 08c0 a97c 8bbe 0ffd 0bbf
00000010: bbf0 e6bf 0828 c53e 8a0f 0640 7c7b e43f
-1.3312049 -2.1382957 -0.27243546 -0.5468301 -1.8042215 0.38507104 2.0946984 1.7850184

cb2_1.bn2.running_mean f4 [8]
00000000: b946 09c2 f385 32c0 02af 81c1 7780 8f40
00000010: e40a 9641 111f 9840 3c75 3e42 9851 d541
-34.319065 -2.7894256 -16.210453 4.4844317 18.755318 4.7537923 47.614487 26.66484

cb2_1.bn2.running_var f4 [8]
00000000: a11a 0845 db1e 9244 eba7 9044 1846 6a44
00000010: daa7 8344 7902 6744 84cd f144 5e8b 6944
2177.6643 1168.9642 1157.2474 937.0952 1053.2454 924.03864 1934.4224 934.1776

cb2_1.conv3.weight f4 [8, 8, 1, 1]
00000000: 6d20 0740 a87b 42be aa19 bebd e6cd 123e
00000010: 4898 f13f c1e7 983f f401 6bbf 0f33 c9be
00000020: 695a 7fbe c689 f23e 90b9 4d40 f2c8 bdbf
00000030: 1773 b63f 365e 9d3f 8f7f 8f3e 70b1 a9be
00000040: e6e5 2540 9e27 a83f 2654 babe 7010 26bf
00000050: af27 793f 14ad 7240 ac0d bc3f 8e87 04bf
00000060: 4486 523f 7cf9 013f dc28 683e 4545 44bd
00000070: 4136 2940 985f 1c3f 9a8f 0bbf c269 64c0
00000080: dfd0 3e3f c2c8 973f 4d50 d0be 6584 8d3f
00000090: 2e9d 16c0 b9c4 fcbf 902f 723c 8c0d d0bd
000000a0: 08c8 293f 091c af3f b78c 833f 95fd b0bf
000000b0: 45b0 583f 0d45 1740 44a7 e6be bfc9 5abf
000000c0: 653f 0abe 40f3 043e 89e7 4fbe 17ee 50bb
000000d0: aa5d 2940 5e6f 2540 9dcc 52bf b648 1dbf
000000e0: 288c 87bf 006e 07c0 a8fe fdbf 2fe0 3dbf
000000f0: 98a7 9ac0 c659 aa3e 981f 3fbf 0c77 d5bf
2.111354 -0.18992484 -0.09282239 0.14336357 1.8874598 1.1945726 -0.91799855 -0.39296767
-0.24936832 0.47370738 3.2144508 -1.4826949 1.4253873 1.2294376 0.28027007 -0.33143187
2.592157 1.313709 -0.36392325 -0.6486883 0.9732618 3.7918139 1.4691672 -0.5176934
0.82236123 0.5077131 0.22671837 -0.047917623 2.6439364 0.61083364 -0.54515994 -3.568955
0.7453746 1.1858141 -0.40686265 1.1056029 -2.3533435 -1.9747535 0.014781848 -0.10158834
0.6632085 1.3680431 1.0277318 -1.3827387 0.84643966 2.3635895 -0.4504949 -0.8546409
-0.13500746 0.12983418 -0.20303167 -0.0031880194 2.6463418 2.5849223 -0.82343465 -0.61439073
-1.0589647 -2.1160889 -1.984334 -0.741702 -4.832958 0.33271617 -0.74657583 -1.6676955

cb2_1.conv3.bias f4 [8]
00000000: 31fc d53e c380 c6bd 789b 52bd 1922 253c
00000010: 6ff4 ab3e ec41 c1bd 8c32 8b3d 44bc a23d
0.4179397 -0.09692528 -0.051417798 0.01007893 0.33584926 -0.09436402 0.067967504 0.07946065

cb2_1.bn3.weight f4 [8]
00000000: bf2f 83bc 9330 4abe 893f de3d 731f 823f
00000010: c360 27bf 0354 2ebe 1ee0 2d40 333c 1a3e
-0.016013978 -0.19745092 0.10851962 1.0165848 -0.6538202 -0.17024235 2.716804 0.15062027

cb2_1.bn3.bias f4 [8]
00000000: 5306 afbf 4a59 e4bf 10ad 98bf 632f b2bf
00000010: d45a 27bf c9d7 b2bf 28bc 9ebf 76fb 80bf
-1.3673805 -1.7839749 -1.1927814 -1.3920711 -0.6537297 -1.3972102 -1.2401171 -1.007674

cb2_1.bn3.running_mean f4 [8]
00000000: 5f21 4a3f 0f62 1840 8b05 1541 cdbd aec0
00000010: d957 85c0 8f08 1c40 668a 3940 e24c a8c0
0.7895717 2.380985 9.313853 -5.460669 -4.1669736 2.4380224 2.8990722 -5.259385

cb2_1.bn3.running_var f4 [8]
00000000: dbde 1242 0079 f041 b0aa 4c43 afe0 e841
00000010: d326 a842 af69 a542 396a 0843 7089 9d41
36.717632 30.059082 204.66675 29.109709 84.07583 82.70641 136.41493 19.692108

cb2_2.conv1.weight f4 [16, 16, 3, 3]
00000000: b7cb c03e 87d7 e8bf 1a54 77bd 4d06 843f
00000010: c57f 24c0 6905 fbbf 6ff0 613f cf14 51bf
00000020: 089f e1bf 3532 0840 9e82 373e 3544 16c0
00000030: a48c 8f3f 76a3 653f 281b 463f 2f5f 6f3f
00000040: e587 1f40 107a 6440 7528 a0be ced6 3bbf
00000050: 888d 81bf db9a d1be feb4 85be 8b2f d7bf
00000060: 5c63 dcbe c766 44bf 81d5 b0bf 8070 0fc0
00000070: 3e90 19c0 56e9 babf f06a 6fc0 2169 44c0
00000080: f69f e9bf ba07 16c0 4599 45c0 d2e2 8bbf
00000090: 509b 5f40 168f ca3f a9df cf3d f25d 2240
000000a0: c910 0e40 75a8 973e 1b4b 933f f57b 923f
000000b0: cc25 98bb 1f3b a040 7068 1f40 8e77 733d
000000c0: 66c5 4240 7be1 5740 772b 0f40 3713 943f
000000d0: bf0e c43f 851f 223f 22e2 2b3f c03f bb3d
000000e0: 005b 90be 6695 c4be 55e5 36bf 5be4 03c0
000000f0: 3bf5 823f 3d32 36bf 09be 39c0 3113 2d40
00000100: beb4 d23f 3f75 3940 1676 0a40 79f1 b03f
00000110: 49f4 b63f 59cc 0640 8c6f c23f 74b1 d0be
00000120: 3f57 9b3f 0f34 0540 fe24 cd3f 3326 a93e
00000130: f416 b73f fc0d 873f bc22 903e 97b9 983f
00000140: 2a13 543f 52fc 1cbf 76f9 0fbf 2da9 39bf
00000150: 08cb 6abe dfed babd 2bce 4fbf bcf5 34be
00000160: 54d9 7b3e 2d74 10be 0366 cb3f f212 2740
00000170: b7a1 3640 0793 1fbf 2c2a fa3f 261d 1740
00000180: e20d b3bf 9dba d33f 60a2 b93f a733 0ac0
00000190: 699b a8bf 6d5e 18c0 cb83 86be 0274 e1bf
000001a0: 1c44 01c0 15ea 963f beb7 c9bb 0f57 75bd
000001b0: 814f 1ac0 c1ea 8bbf b29b 14c0 1d6f 06c0
000001c0: 3202 0ac0 86f9 dbbf b4eb 87bf 5f73 fabf
000001d0: e9cd 20c0 4718 d43c fbbd 883f 2f5b 113f
000001e0: d6b6 8cbd 0c74 9fbe 41e3 4c3e 45d1 04bf
000001f0: 6a07 68bf 9161 b0bf 26bf f9bf 17af 06c0
00000200: 2136 41c0 d081 c1bf 9875 61c0 f8fb 11c0
00000210: 1c15 06bf 681c e3bf 9fd2 99bf 7a0e 4140
00000220: 155c 3040 b949 a53f d60a 9c3f 0839 f93f
00000230: be59 1040 e374 1ebf 0e0a 6f3f 9313 de3f
00000240: f92e 4f3f 48f8 acbd 05c9 c23e 1edd 853e
00000250: c9cb 633f 4987 df3f b032 433e 82a4 e53f
00000260: 42d9 5540 19c3 1fbe 817b 8b3d d872 5dbd
00000270: 406c 23bf 2fe6 6cbe 0806 58bf 2a48 073f
00000280: 4bc8 0b3f 04ad fc3d 1634 c53f 6a56 59bf
00000290: 82b0 97bf 7790 0d40 01f1 17be 35a5 91bf
000002a0: ffaa eb3f 6ac0 d63e e21d 14bf 40bf ae3f
000002b0: 3b06 f33f b9a5 87be 7ec6 e73f 9583 2740
000002c0: 9e53 8a3f 530c f93e f4f7 7f3f 5d21 1d3f
000002d0: dabd 9d3f 1ff6 613f 22a6 3d3f dff8 1e3f
000002e0: b952 04bf 6c5c ca3e fd74 b23e efe7 293e
000002f0: 6871 afbf 3035 fcbf b5a5 7bbf bbde 3fbf
00000300: 377a bfbf c93b 24c0 7bb3 f0bf d25a a83e
00000310: ad19 12c0 0d4a 46c0 cc01 eb3e d21c b13f
00000320: b59d 9f3e 35e3 873f 5c66 be3f 124d 1f40
00000330: 6082 923f f516 3440 f1c7 8740 f64e a7bf
00000340: dae3 fabf 1461 84bf ffb6 01c0 c02b 9abf
00000350: 2d65 69bf 298c bcbf 5650 b4bf 1851 67bf
00000360: cc7a 04c0 87fb 0fc0 c1b1 03c0 c4c8 0dbf
00000370: e532 0cc0 65ad c2bf 5d04 333f f40d 17bf
00000380: 77dd d1be 9002 d63e 6a7a 063e fbb8 7a3f
00000390: 4c65 d53e f819 9c3f c90c 8a3f 412e 8a3c
000003a0: ca12 e63c e836 af3e 553c 36c0 8977 16c0
000003b0: 2a8e 07c0 b941 573e c3a7 d1bf 0bc6 9fbf
000003c0: 5634 883f 743e 38bf 10a0 1fbf fd76 4940
000003d0: 00d0 1d40 3906 3840 37b8 90be f068 42bc
000003e0: 3553 0a40 cde7 213f 50d1 e33f 8ec3 e43f
000003f0: e5fd a43f c6f3 1a40 871a 7d40 74b1 a73e
0.37655422 -1.8190774 -0.06038294 1.0314423 -2.5702984 -1.9611026 0.882575 -0.81672376
-1.7626657 2.1280644 0.1792092 -2.347913 1.1214795 0.89702547 0.7738519 0.93504614
2.4926693 3.56995 -0.31280866 -0.7337464 -1.0121317 -0.40938458 -0.2611465 -1.6811384
-0.43044555 -0.76719326 -1.3815156 -2.2412415 -2.3994288 -1.4602458 -3.740902 -3.0689166
-1.8251941 -2.3442216 -3.0874798 -1.0928595 3.4938545 1.5824916 0.10150082 2.536984
2.2197745 0.2962071 1.1507295 1.1444079 -0.0046431776 5.007217 2.4907494 0.059440188
3.0432982 3.3731372 2.237028 1.1568364 1.5317 0.63329345 0.67141926 0.09143019
-0.28194427 -0.38395232 -0.7144368 -2.0608127 1.0231088 -0.7117041 -2.9022238 2.7042964
1.6461408 2.8977811 2.1634574 1.3823692 1.42933 2.1062224 1.5190291 -0.40760386
1.2136 2.0813024 1.6026914 0.33036956 1.430388 1.0551143 0.281515 1.1931638
0.8284174 -0.6132251 -0.5624002 -0.72523767 -0.22929013 -0.091274016 -0.8117396 -0.17671865
0.24594623 -0.14106818 1.5890507 2.6105313 2.8536203 -0.6233372 1.954412 2.361154
-1.3988612 1.6541325 1.4502678 -2.1594026 -1.3172427 -2.3807633 -0.26272425 -1.7613528
-2.019782 1.1790186 -0.006155937 -0.05989748 -2.4111025 -1.0931016 -2.322003 -2.1005318
-2.156384 -1.7185524 -1.0618806 -1.9566458 -2.5125678 0.025890483 1.0682977 0.5677976
-0.06870811 -0.31143224 0.20008565 -0.5188182 -0.9063631 -1.3779775 -1.9511459 -2.1044366
-3.0189288 -1.5117741 -3.5228024 -2.281004 -0.5237596 -1.7743044 -1.2017401 3.0165086
2.7556202 1.2913123 1.2190807 1.947053 2.2554774 -0.61897105 0.9337472 1.7349724
0.8093105 -0.084457934 0.3804399 0.26145262 0.88982826 1.7463161 0.19062304 1.7940829
3.3413854 -0.15601768 0.06810666 -0.0540646 -0.6383705 -0.23134683 -0.843842 0.5284449
0.546025 0.123376876 1.540652 -0.8489748 -1.1850741 2.2119424 -0.1483803 -1.1378542
1.8411559 0.41943675 -0.578581 1.3652115 1.8986276 -0.26493624 1.810745 2.6174061
1.0806768 0.48642215 0.9998772 0.61379033 1.2323563 0.88266176 0.74081624 0.620985
-0.51688725 0.39523637 0.3485488 0.16592382 -1.3706484 -1.9703732 -0.98299724 -0.74949235
-1.4959172 -2.566149 -1.8804773 0.3288179 -2.2828171 -3.0982697 0.45899808 1.383692
0.31175008 1.0616213 1.4874988 2.489079 1.1446037 2.8139012 4.243157 -1.3070972
-1.9600785 -1.0342126 -2.0267942 -1.2044601 -0.91170007 -1.4730273 -1.4087017 -0.90358114
-2.069995 -2.249727 -2.0577242 -0.5538447 -2.1906064 -1.5209166 0.6992853 -0.59005666
-0.40989277 0.4179883 0.13132635 0.9793851 0.41678846 1.2195425 1.0785152 0.016867759
0.028085131 0.34221578 -2.8474324 -2.3510458 -2.118052 0.21021165 -1.6379322 -1.2482313
1.0640972 -0.71970296 -0.6235361 3.1478875 2.4658203 2.8753798 -0.28265545 -0.011865839
2.1613286 0.63244325 1.7798252 1.7872179 1.2889982 2.4211287 3.954744 0.32752573

cb2_2.conv1.bias f4 [16]
00000000: 0d47 97bc e966 8a3c 9297 b43e 2140 c5bd
00000010: ab52 4fbc 2a3d c7bd fd96 183d 00c0 d43b
00000020: e47a 40be a9a8 d33d 0f1c 97bd 9eca 773d
00000030: af0c 1fbc 34d1 143b 6487 c33c 6fd0 993d
-0.018466497 0.016894775 0.3527189 -0.09631372 -0.012653987 -0.09728463 0.03725337 0.0064926147
-0.18796879 0.10334904 -0.073783986 0.060495965 -0.009707614 0.0022707703 0.02386827 0.07510459

cb2_2.bn1.weight f4 [16]
00000000: f37f 703f 30c7 3240 85ac 2cbf a08c 423e
00000010: 03ab 75bf ce86 70bf cd41 613e 3169 2bc0
00000020: 94df 1840 8c4f 0a3f 11f1 9d3e 43d1 f83f
00000030: c26f 9cbe 430b a03d a420 953e 9250 debe
0.93945235 2.7934074 -0.67450744 0.18998957 -0.9596407 -0.93955696 0.21997757 -2.6782954
2.3886461 0.5402763 0.30847982 1.9438862 -0.30554014 0.07814648 0.29126465 -0.43420845

cb2_2.bn1.bias f4 [16]
00000000: 097f a53f c912 64bf 70ad 84bf 382b 91bf
00000010: cc64 e2bf 79f6 e5bf 9cdc 88bf d9a4 86bf
00000020: 3c2c 1740 ae92 8bbe 40fa a7bf bf8c a0be
00000030: df6e d03f 4e62 f5bf 345d 15c0 32c1 c3bf
1.2929393 -0.89091164 -1.0365429 -1.1341314 -1.7687011 -1.7965842 -1.0692325 -1.0519058
2.3620749 -0.27260345 -1.3123245 -0.3135738 1.6283835 -1.9170625 -2.3338137 -1.5293334

cb2_2.bn1.running_mean f4 [16]
00000000: c1a6 a0bf d4d7 363c 85c6 66c0 8087 9a40
00000010: ff0f e93f a755 d440 efbb 7f40 bdc7 d0c0
00000020: 0a55 b8c0 3949 f63f bc4a 2d40 0f54 f9c0
00000030: 7bb8 a9c0 9105 4441 ff98 0cbc 1eb0 0041
-1.2550889 0.011159856 -3.6058667 4.8290405 1.8208007 6.6354556 3.9958456 -6.524382
-5.7603807 1.9241096 2.7076864 -7.791511 -5.3037696 12.251359 -0.008581399 8.042997

cb2_2.bn1.running_var f4 [16]
00000000: 9d4d 4246 a982 6046 9879 7446 c3c8 5e46
00000010: 33e2 8245 8779 dd45 5caa b946 1150 8446
00000020: b3bc 2f46 e164 8646 12ae 1d46 0f65 8346
00000030: bef2 8b45 40ac a045 882b 5646 e223 8645
12435.403 14368.665 15646.398 14258.19 4188.275 7087.191 23765.18 16936.033
11247.175 17202.44 10091.518 16818.53 4478.343 5141.5312 13706.883 4292.4854

cb2_2.conv2.weight f4 [16, 16, 3, 3]
00000000: 1c79 a0bf 3130 883e 5044 aa3f 8871 f0bf
00000010: 8e41 4c3e 4855 6b3f d965 0fc0 e258 c6bf
00000020: a870 bcbf 1748 87c0 fc56 bdbf 5788 44bf
00000030: 8056 09c0 5d5b 5ec0 a324 05c0 dc39 2ac0
00000040: 637d aec0 b049 7bc0 c15b 98bd ce83 b43e
00000050: 5acf 983e bf27 0fbf d16a c73e 9095 bd3f
00000060: bb77 81be 27ab ee3e fbaa cc3f 64c1 cd3f
00000070: 1ebf c53f 48fa 5a3f bfaa d53e deb5 683f
00000080: a443 56be 4bca c43f 48d9 833f a7c3 0b3f
00000090: a004 513f b3e1 963f aba0 783f 904c 7bbe
000000a0: af81 50bd ff63 4f3f ceb8 aebd 060b 6f3d
000000b0: 47b6 db3f 16c3 e73f 55d8 8f3f ad02 a53f
000000c0: 3d84 d03f 2ff2 ac3f 5455 2f3f f750 683f
000000d0: 1f24 3ebf bfbe 5cbe 3c6e ef3f 1f97 903f
000000e0: 040c 6240 b5b1 0e3f c814 853f 6fde 7a3f
000000f0: da16 6d3f b363 1abd 28fb 59be 98b0 9bbf
00000100: 83a3 b7be eeb3 96be 48df 01c0 3af1 07bf
00000110: 578c 27bf 990b 40c0 725e f4bf 0b8d 4abf
00000120: 0615 9ebf c4e4 dfbf b14c e9bf ffef ccbe
00000130: 65c6 1ec0 eea2 42c0 9b1d ccbf e533 ccbf
00000140: 605d febf 7783 e93f aed2 5a3f fe9a 113e
00000150: 368e b83f 7a90 87bf 9ebd 6dbe 19e2 4b3f
00000160: 716b c5be 5a37 adbe 3dc3 86bf 3cf3 0e3f
00000170: 3d44 113f 2576 26bf f0ec 1f3f e75f 673e
00000180: 7d95 2d3f 6555 583f 8cc2 5c3d 072b 313f
00000190: d773 ea3f 6b98 5c40 1650 c1be 5fad d93f
000001a0: 8058 953f c6bf 073d 4b7c 9abf ef4f 9bbe
000001b0: 0528 acbe f996 ec3e 8813 873f 8e6f 893e
000001c0: 7e5e b9be c4a6 e03d 3ab4 093e 65b2 96bf
000001d0: f649 74bf edf2 883e de9e 003e 7e91 a6be
000001e0: 657c 0b3b db77 e1be 1f9d f33e a5c1 3c3f
000001f0: 21f8 543f fd5d b13f 751c c93f 6a42 1740
00000200: 249c ba3d 4ddb 0c3e 879d a83f b873 543f
00000210: 3878 073f c74f 163f a92d 16bf 6c6a fb3e
00000220: 9012 9b3f 7120 9b3d c326 55bf a600 ebbd
00000230: d136 2a3f 70ff b6bf b313 07bf 0bc7 9ebd
00000240: 4beb 593f 464d 35bf aedc e7bf e7ef bf3f
00000250: cbdd 30bf b609 a2bf 22f4 0340 7b20 3540
00000260: f8c4 a23f 4f52 2940 4ed4 203f 0bd7 a2be
00000270: 5c66 d03f 1d70 0b40 78a8 a83f 3e6e 2040
00000280: 1d39 8b40 9433 6e40 b5d7 413e ac75 283f
00000290: fecc 443e 808a 933d 0c38 143d 644e 26bf
000002a0: d400 793f c6dd c7be 1f48 80bf a272 5ebf
000002b0: d336 25be b597 683f 0c7c 093e 7cb2 6e3f
000002c0: 72ac 293d cc11 20bf b60b d6be 3da6 b7bf
000002d0: 5575 f4bd 85c0 81bf a0b9 8dbf 9c28 18bf
000002e0: 7f34 3dbf 11cd aabf c0a2 2c3e 58e0 50be
000002f0: 1b0e 01c0 e977 f1bf eb4a 81bf ada9 8ebf
00000300: 950c 63bf cfe4 8cbf ed65 73bf 5727 363c
00000310: ecb8 b93f 898c 5f3e 08a5 97bf b608 03c0
00000320: fba9 42c0 bc06 e43e 2e5e 86bf 311e a3bf
00000330: a525 4a3e 241e a9be f44b 13bd 797d 3640
00000340: 3a0c bc3f d4d5 923f 1c4e 3e40 364f d63f
00000350: 3b8f 793f 8be1 5940 e59a 0a40 289d 013f
00000360: b799 363f ebc8 783f 74bd cbbd 8fb7 1ebf
00000370: 2b1a 0c40 5aed c83f 5432 c33f 1d0d 4340
00000380: 04e5 3c40 2a51 ccbf 3be6 3bbf 3874 cdbf
00000390: c4e9 93bf ef5b 83bd 8e42 d0bf 75f4 7dbf
000003a0: f996 9e3e 3197 7dbd 0d6c 30bf ed0d c1bf
000003b0: b53d c2bf 1edc ecbf f2c1 17bf b586 80bf
000003c0: a3c3 9cbf 221a 17bd c15a 353e 0dc7 bdbf
000003d0: 01f7 12c0 253d 6bc0 a834 b43e 5040 78bf
000003e0: eff1 2bc0 b0ee bc3f 7695 5c3f 9016 aebe
000003f0: a758 423f 51a8 15bf 9164 7abf 2d64 e9be
-1.253696 0.26599267 1.3302097 -1.8784647 0.19946882 0.91927004 -2.2405913 -1.5495875
-1.472188 -4.22755 -1.479217 -0.7677054 -2.1459045 -3.4743264 -2.0803611 -2.6597815
-5.452806 -3.9263725 -0.07439376 0.3525681 0.29845697 -0.5592002 0.38948682 1.4811268
-0.2528666 0.46614954 1.5989679 1.6074643 1.5448949 0.8553815 0.4173183 0.9090251
-0.2092424 1.5374235 1.0300684 0.54595417 0.8164768 1.1787628 0.9712016 -0.24540925
-0.050904926 0.81011957 -0.085313424 0.058360122 1.7165002 1.810641 1.1237894 1.2891442
1.6290356 1.3511409 0.68489575 0.9074854 -0.74273866 -0.21557139 1.8705516 1.1296118
3.5319834 0.5573991 1.0396967 0.97995657 0.92612994 -0.037692737 -0.21287215 -1.2163267
-0.35866937 -0.2943415 -2.029253 -0.5310246 -0.65448517 -3.0007079 -1.9091322 -0.79121464
-1.2350166 -1.7491689 -1.8226529 -0.40026852 -2.480859 -3.0411944 -1.5946535 -1.5953337
-1.9872246 1.8243245 0.8547772 0.14219281 1.4418399 -1.0590966 -0.23216864 0.7964187
-0.38558534 -0.33831292 -1.0528332 0.55839896 0.5674475 -0.65024024 0.6247091 0.22595178
0.67806226 0.845053 0.05389647 0.6920628 1.8316602 3.4468029 -0.37756413 1.7006034
1.1667633 0.033141874 -1.2069181 -0.30334422 -0.33624282 0.46208933 1.0552835 0.26842922
-0.36204904 0.10969308 0.13447657 -1.1773192 -0.95425355 0.26747838 0.12560603 -0.32532877
0.0021283862 -0.44036755 0.4758081 0.7373298 0.83191115 1.3856808 1.5711809 2.3634286
0.09111813 0.13755532 1.3173074 0.8298907 0.52917814 0.5871548 -0.5866342 0.4910463
1.211504 0.07574547 -0.8326227 -0.11474733 0.66489893 -1.4296703 -0.52764434 -0.07752808
0.85124654 -0.70821035 -1.8114221 1.4995087 -0.6908843 -1.2659214 2.0617757 2.8301075
1.271636 2.6456487 0.6282395 -0.3180469 1.6281238 2.1787179 1.3176413 2.5067286
4.350722 3.721898 0.18929942 0.65804553 0.19218823 0.07204151 0.036186263 -0.64963365
0.9726689 -0.39036387 -1.002201 -0.86893666 -0.16134195 0.90856487 0.13426226 0.93241096
0.041424222 -0.62527156 -0.4180581 -1.4347607 -0.11936442 -1.0136877 -1.1072273 -0.59436965
-0.7390823 -1.3343831 0.16858959 -0.2039808 -2.016486 -1.8864719 -1.0100988 -1.1145531
-0.88691074 -1.1007327 -0.950774 0.011117778 1.4509559 0.21830954 -1.1847239 -2.0474067
-3.0416248 0.44536388 -1.0497491 -1.2743589 0.19740923 -0.33030808 -0.035961106 2.8514082
1.4691231 1.1471505 2.9735174 1.6742923 0.9748418 3.404391 2.165704 0.50630426
0.713283 0.97181576 -0.09948245 -0.6199884 2.1890972 1.5697434 1.5249734 3.0476754
2.951478 -1.5962269 -0.7339818 -1.6051092 -1.1555715 -0.06414019 -1.6270311 -0.99201137
0.30974558 -0.061911765 -0.6891487 -1.5082375 -1.5175081 -1.8504674 -0.5928031 -1.0041109
-1.2247204 -0.036890157 0.17710401 -1.482637 -2.296326 -3.675607 0.35196424 -0.96973133
-2.6866415 1.4760342 0.8616556 -0.3400159 0.7591652 -0.58459955 -0.978097 -0.4558424

cb2_2.conv2.bias f4 [16]
00000000: 83d1 edbd e0b2 b13c e776 e13b 89b2 08bd
00000010: 4d80 943d 78d1 bc3d 19df 6b3d a7e2 2abd
00000020: 9600 453d 708d 74bb eb7d 19be 9205 0a3d
00000030: 4f87 81be 31e5 503e 063f 8f3c f13d e8bd
-0.11612227 0.02169174 0.0068806293 -0.03337339 0.07251034 0.092196405 0.05758581 -0.04172006
0.048096262 -0.0037315749 -0.1498944 0.03369672 -0.25298545 0.2039993 0.017486107 -0.113399394

cb2_2.bn2.weight f4 [16]
00000000: 0b73 86c0 f4cd 8740 0aa1 203f 2907 923e
00000010: e6f7 a0be 6f40 3a40 2f89 bcbf 91a5 84bf
00000020: f8a7 62bd a473 f63d a9c6 eabe 0953 4abf
00000030: b34e 6040 1571 283f 77dd c93e 86a0 13bf
-4.2015433 4.243891 0.62745726 0.28521088 -0.31439131 2.9101827 -1.4729365 -1.0363027
-0.05533597 0.120337754 -0.4585469 -0.7903295 3.5048034 0.6579755 0.39426777 -0.57666814

cb2_2.bn2.bias f4 [16]
00000000: b0af 2440 76c7 2640 e614 ebbf 9de9 a53f
00000010: edd7 cbbf 1689 dd3f dff1 2d3f 9367 833f
00000020: 78f4 d93f f136 69bf 5b80 1240 2c63 773f
00000030: 6aad febe ea4b e03e 97ce 8a3f 7b31 cfbf
2.573223 2.6059241 -1.8365753 1.2961918 -1.592527 1.730746 0.6794719 1.0265983
1.7027731 -0.9109946 2.2890842 0.966357 -0.4974168 0.43807918 1.0844296 -1.6186975

cb2_2.bn2.running_mean f4 [16]
00000000: b349 85c2 e4e7 4342 4494 2cc2 ecfd 89c1
00000010: 3561 9bc2 5c97 9342 cf8f 2742 8b1e 98c2
00000020: 0c1e 9e41 7cb0 9342 3149 8e42 4c13 3242
00000030: 914c 4cc2 09f9 b0c2 1623 a542 de81 a7c0
-66.64394 48.976456 -43.14479 -17.248985 -77.68986 73.79562 41.890438 -76.059654
19.764671 73.844696 71.14295 44.518845 -51.07477 -88.4864 82.56853 -5.234603

cb2_2.bn2.running_var f4 [16]
00000000: 51c9 2e46 ebd7 1546 3b4f c444 21b5 8445
00000010: 2151 0346 3ece 0e46 41c7 6445 3606 2146
00000020: 56fe b045 5949 8845 3d50 1746 1eea 1c46
00000030: cc69 3145 4942 2346 1fd8 0f46 a663 1345
11186.329 9589.9795 1570.476 4246.641 8404.282 9139.561 3660.4534 10305.553
5663.792 4361.1685 9684.06 10042.529 2838.6123 10448.571 9206.03 2358.228
